lightning_logs/default/version_0/checkpoints/epoch=0-step=29.ckpt (torch, 779787 bytes, 948 tensors)

input_embeddings.embeddings.wanProvider.weight f4 [17, 8]
000000 8a db d6 bf a0 fc f3 be c0 a1 cf be 04 ea 55 3e
       -1.6785748 -0.47653675 -0.40553093 0.20890051
000010 03 a1 20 bf bb e0 a2 bf bc e0 38 3e 4b 92 37 3f
       -0.62745684 -1.2724832 0.1805448 0.717076
000020 a1 42 41 bf df 26 b0 3f f8 58 63 40 e3 4a c6 bd
       -0.7549229 1.3761863 3.5523052 -0.09682252
000030 af 26 0d 40 5c fd a8 3f 84 98 a8 3e bf 28 4d 3e
       2.205486 1.3202319 0.3292886 0.20035075
000040 f2 31 f4 3d c7 4a 08 bf ea ef 44 3f 13 5a f6 bf
       0.11923589 -0.532391 0.7692858 -1.9246238
000050 b8 48 c6 3b 4b 89 c5 3e d3 be 24 3e d8 eb 83 bf
       0.006051149 0.3858131 0.16088419 -1.0306349
000060 7f 7a 8e bf eb c8 26 3f e3 e6 73 bf 5c bc 9d be
       -1.1131133 0.65150326 -0.9527418 -0.3080777
000070 58 95 1f 3f 22 58 dd 3e c7 bd 59 40 42 ca 69 bf
       0.62337255 0.43231302 3.402208 -0.91324246
000080 22 b5 1c 3f bc b5 29 bf e4 39 6e 3f 31 0f a4 bf
       0.61213887 -0.6629293 0.93057084 -1.2817136
000090 b2 51 0e 40 bf b6 49 bf dc 42 1c 3f 48 a9 00 bf
       2.2237363 -0.78794473 0.6103952 -0.502583
0000a0 98 22 ea be a2 56 9d bd d2 2d 1c 3d 42 88 1d 3f
       -0.45729518 -0.076825395 0.038129635 0.6153604
0000b0 5a 4d 46 3d ce 5a 20 3f d9 f0 f7 3e 28 b1 6e bf
       0.048413612 0.62638557 0.4842594 -0.9323907
0000c0 82 34 d2 3e e2 0a f6 3f 35 2a 27 40 4e 1e 6f bf
       0.41055685 1.9222071 2.611951 -0.93405616
0000d0 3a d5 a0 bf f2 57 ff bf 09 aa 2f 3f 91 4d eb be
       -1.2565072 -1.9948714 0.6861883 -0.45957616
0000e0 d2 b8 93 3e 8e 31 68 bf 11 08 27 bb 46 73 f4 3e
       0.28851944 -0.90700614 -0.0025486986 0.47744197
0000f0 d0 2c 62 3f 7f 4a ac 3f 22 b7 20 3f 7f e1 06 3f
       0.8834963 1.3460234 0.6277944 0.5268783
000100 4c 74 b3 be b3 ab 14 3f bb 17 97 bf 0d 3b 61 3f
       -0.35049665 0.5807449 -1.1804117 0.8798073
000110 fb be fb 3e 5d a8 e5 bf b8 8e 79 3c 1d a3 b5 bf
       0.49169144 -1.7942005 0.015231781 -1.4190403
000120 ec b3 36 3e b4 93 d4 bf 1e 1f 07 40 e6 24 bc be
       0.17842072 -1.6607575 2.1112742 -0.367469
000130 45 f1 bf bf 08 4a 86 3f bc 2e 98 3f 80 b1 36 3e
       -1.4995505 1.0491343 1.1889262 0.17841148
000140 18 56 07 3e 42 fd 50 bf 9e ae 96 3d ef fd a1 bf
       0.13216436 -0.8163644 0.07357524 -1.2655619
000150 1e 02 79 bf 08 5d a4 bf 6c fb 70 bf 74 22 cb 3f
       -0.97268856 -1.2840891 -0.9413364 1.5869889
000160 a4 01 de 3e b8 32 a2 be 02 07 05 bf 46 15 27 bf
       0.43360627 -0.3167932 -0.5196382 -0.65266836
000170 60 71 04 c0 c6 26 60 bf 18 b1 4b 3e 05 8c 1b bf
       -2.0694199 -0.87559164 0.19891775 -0.6076053
000180 b4 a4 32 3f e3 5f 54 be ee 8b df 3f a9 4f a1 be
       0.6978257 -0.20739703 1.7464578 -0.31506088
000190 4d 6a 29 c0 18 7d a2 be 49 9a 83 bf a0 d0 6c be
       -2.647113 -0.31736064 -1.0281459 -0.23126459
0001a0 b8 29 7e 3f 8e 56 fd 3d 22 d0 80 3e 80 e0 2a bf
       0.9928241 0.123700246 0.25158793 -0.6674881
0001b0 8c 90 02 bf c2 99 3b 3e d1 9e 02 3f d7 44 2b bf
       -0.5100181 0.18320373 0.51023585 -0.66901916
0001c0 19 b4 66 bd 43 a6 79 bf 9c 72 9c 3f 3c ce 46 3f
       -0.0563241 -0.9751932 1.2222476 0.7765844
0001d0 5b 31 ab bc 2a 40 6f 3f 44 02 48 bd 82 e3 a1 be
       -0.020897558 0.9345728 -0.048830286 -0.31618887
0001e0 88 10 2a bf 3c 4b 05 3f 54 27 81 be 4e a8 92 3f
       -0.66431475 0.52067924 -0.25225317 1.1457613
0001f0 c8 32 8d bf 06 cc d6 3d 99 f0 46 bf 6e 7b 33 be
       -1.1031122 0.10488133 -0.7771087 -0.17527553
000200 76 ea ee be 43 10 9f 3f c0 b2 91 3f 23 d2 2d 40
       -0.46663254 1.2426838 1.1382675 2.7159507
000210 a8 7e 9c be fe 6b c4 3e e5 ff db be 08 21 8c 3f
       -0.3056538 0.38363642 -0.4296867 1.094758

input_embeddings.embeddings.fleet.weight f4 [9, 5]
000000 c8 e0 26 3f 62 ea 82 bf aa 4f f1 be 62 d3 68 3d
       0.6518674 -1.0227778 -0.4713109 0.056842215
000010 a8 a0 c3 bf 76 3a 67 bf f2 d7 c3 bf 03 57 81 bf
       -1.5283403 -0.9032358 -1.5300276 -1.0104679
000020 f1 84 0f be 60 f6 a4 3f 7a ea 38 3f 14 a9 0b bf
       -0.14015557 1.2887688 0.7223278 -0.5455487
000030 ce 5e 0b 3e 3d 56 d2 3e 4e 25 04 bf 20 4c 32 3f
       0.13610384 0.4108142 -0.5161942 0.6964741
000040 ce 34 c8 be 10 b2 9e 3f f0 7f b0 3f 72 20 14 40
       -0.39102787 1.239809 1.3789043 2.3144803
000050 c3 fe 2a be 12 24 a1 bf 3e 0f 53 3f 1c cf 05 40
       -0.16698746 -1.2589133 0.8244513 2.090766
000060 6c a0 de be ad f5 b3 bf 39 c1 a6 bf 2f 92 ad 3f
       -0.43481767 -1.4059349 -1.3027717 1.3560237
000070 0c f6 71 3f 25 d4 d9 bb 82 89 5f 3f 16 15 83 bf
       0.9451606 -0.006647604 0.87319195 -1.024081
000080 b6 46 f5 3f 8a d4 9a 3f 60 17 c6 bf 4a 2e fd 3e
       1.9162204 1.2096112 -1.5475883 0.49449378
000090 54 04 3b be 18 94 0f c0 cc 0d b5 bd ff 8c 08 c0
       -0.1826337 -2.243414 -0.08840522 -2.1336057
0000a0 3a f9 c1 3e 2e 96 38 3e 1e 00 a9 be 40 70 ec be
       0.37885457 0.18026039 -0.33007902 -0.4617939
0000b0 ae dd 31 3f
       0.6947888

input_embeddings.embeddings.trainName.weight f4 [356, 16]
000000 be b8 ed be 29 12 dc 3e f2 69 11 3f 20 88 dd be
       -0.4643001 0.42982605 0.56802285 -0.43267918
000010 1e 1a 91 3e ac 6d 18 bf c4 aa 3e 3f 0a 96 b1 be
       0.28340238 -0.59542346 0.7447932 -0.34684783
000020 4a a7 59 3c 4e 90 e5 3e b7 f5 8f 3e 22 92 b0 3f
       0.013284514 0.44836658 0.28117153 1.3794596
000030 48 15 3e 3f ba 3b ef 3f 46 63 8a 3e 4c 3a e3 3e
       0.7425122 1.8690102 0.27028865 0.44380414
000040 62 21 98 bf a0 79 52 3e 30 fe 9f bf c0 1d 0a bf
       -1.1885188 0.20554209 -1.2499447 -0.53951645
000050 64 43 00 c0 c6 ef bd be 9e 24 8f 3e d7 12 3b bf
       -2.0041132 -0.37096995 0.27957624 -0.7307562
000060 7d 55 21 be d4 6f 03 3e 9e 99 f7 bf df ad f3 be
       -0.15755267 0.12835628 -1.9343755 -0.4759359
000070 0a 13 60 3f 17 69 bb bf 71 3f b6 bf ad c9 9d bf
       0.8752905 -1.4641446 -1.4238111 -1.2327172
000080 64 a7 57 be 16 81 ae 3e ee fd 0e 3f 02 6f 1d bf
       -0.21059948 0.3408286 0.55856216 -0.6149751
000090 47 d1 3d bf d6 7c 92 3f 76 60 9b be 9e 1b 0b bf
       -0.74147457 1.1444347 -0.3034703 -0.54339015
0000a0 1d 10 4c 3f 6d be fd bd 84 53 2c 3f 70 e8 b2 bf
       0.79712087 -0.123898365 0.67314935 -1.3977184
0000b0 6d 81 a5 3d b2 f7 73 3f 0c 3d 96 bf a0 bf a3 bf
       0.08081327 0.9529983 -1.173738 -1.2792854
0000c0 e0 98 4a 3e ab e4 9a bf 6e 31 8e 3e b2 71 a3 bf
       0.1978488 -1.2101034 0.27772087 -1.2769072
0000d0 16 8f 42 3d 56 df b1 3e 33 39 ae 3e 8e 22 ba 3f
       0.04749974 0.34740704 0.34028015 1.4541795
0000e0 30 19 9c 3f 7d b5 9f 3f 28 27 7c bf 56 43 6a bf
       1.2195187 1.2477261 -0.9849725 -0.91508996
0000f0 04 0d db 3f 23 08 7f 3e 8e fc 1f 3f 45 03 aa 3f
       1.7113347 0.24905448 0.6249474 1.3282248
000100 b8 eb 15 c0 06 ec 1b 3f 84 c3 6b 3f dd 9c 8d 3e
       -2.3425121 0.6090702 0.9209521 0.2765874
000110 fb 59 62 3f cb 6d 1a be 20 55 f8 be 6c ca c1 3e
       0.8841855 -0.15080945 -0.48502445 0.37849748
000120 a8 a9 bb be c9 81 87 bf d6 82 18 be 6e 9a 95 bf
       -0.36652875 -1.0586482 -0.1489366 -1.1687753
000130 50 ad 93 bf 56 0d 9f 3f a8 f2 57 3f 9e 5b 2e 3e
       -1.1537266 1.2425945 0.8435464 0.17027137
000140 ea bf 3c be 28 c7 aa be 34 39 2a bf a4 b2 e8 3f
       -0.18432584 -0.3335507 -0.66493535 1.8179517
000150 1e 59 12 bf aa ce aa 3f 61 e6 28 be d0 e0 0f bf
       -0.5716723 1.3344319 -0.16494133 -0.5620241
000160 b0 44 d6 3f 08 3d c1 3f 57 28 2a 3f 86 3d 09 bf
       1.6739712 1.509675 0.66467804 -0.536095
000170 bc 5f b2 bf 54 2d f7 bf ba 7b 08 40 5d 00 30 3e
       -1.3935466 -1.9310708 2.1325517 0.17187639
000180 2e a5 b5 bf c4 5a c4 3f b0 2f a2 3f 2a 12 31 bf
       -1.4191034 1.53402 1.2670803 -0.6916834
000190 6a f8 81 3e 3e b7 89 be fa 86 7c be 04 5d e9 be
       0.25384837 -0.26897615 -0.24660864 -0.45578778
0001a0 dd 5c 0a bf d8 05 b9 3f 34 b0 f1 be 0a c9 a5 3f
       -0.5404795 1.4454908 -0.47204745 1.2951977
0001b0 c5 49 48 3f 63 8d be 3e 79 96 1e 40 df 37 d5 bf
       0.78237563 0.37217245 2.4779341 -1.6657676
0001c0 56 cd 59 bf 5f ca 63 be e0 d8 c9 3e e6 6d c6 3e
       -0.8507894 -0.22245167 0.39423275 0.3875572
0001d0 3a 03 53 3e de b8 19 3f 27 bf ec 3e 68 7d c7 3f
       0.206067 0.6004771 0.46239588 1.5585146
0001e0 0f 4c 89 bf be 3c a8 bf d0 a6 54 3f 73 ae 8e be
       -1.0726336 -1.3143537 0.83067036 -0.2786747
0001f0 72 ea 81 bf 7f 7b 59 bf 3e cd 06 3f 08 bb 66 3f
       -1.0149672 -0.84954065 0.52656925 0.9012914
000200 3a f1 96 bf 6e cd 1b bf 8a b3 00 bf 26 62 a6 be
       -1.1792367 -0.60860336 -0.50273955 -0.32496756
000210 ae d0 97 bd 40 2c 0b 3f 6b df d1 be 31 0a 07 3f
       -0.07412849 0.54364395 -0.40990767 0.52749926
000220 54 15 90 3e 5a 58 85 bf 84 34 05 3f 2c 1d 0d bf
       0.28141272 -1.0417588 0.5203326 -0.5512264
000230 38 36 fe bd 7e 86 f8 bf e0 12 82 3f f8 e7 19 be
       -0.12412685 -1.9416044 1.016201 -0.15029895
000240 a2 3d 08 be 80 17 ef 3f d4 3b 8e 3f da d7 a6 3f
       -0.13304761 1.8679047 1.1112008 1.3034623
000250 57 18 ff be b8 d2 d0 bf 0c 93 9d be 66 4f 06 40
       -0.49823257 -1.6314306 -0.3077625 2.098596
000260 ae 65 5f bf fc 52 15 bf 0a f9 f6 bf ba 5d a2 bf
       -0.87264526 -0.5832975 -1.9294751 -1.2684853
000270 54 b7 93 bd 98 41 b1 be dd d1 b9 be 02 cb b2 3e
       -0.072127014 -0.34620357 -0.36292925 0.34920508
000280 c1 2f 4a 3f 90 c8 c2 3e 2e 41 93 3e 86 eb 81 bf
       0.78979117 0.38043642 0.28760666 -1.0150001
000290 90 5b 8f bf 2e 9c c9 bd 89 ea 14 c0 d4 48 11 bf
       -1.1199818 -0.09844242 -2.326815 -0.5675175
0002a0 5d 65 a5 be 7e fe 7c 3e 2c 28 2d 3e 5c 66 78 be
       -0.32303897 0.24706456 0.16909856 -0.24257797
0002b0 c6 6e 0c bf 70 18 60 3e f8 8c cd bf 0e 90 87 3f
       -0.54856527 0.21884322 -1.6058645 1.0590837
0002c0 79 d8 a0 3f ff eb eb 3e 43 e5 c6 3f f0 f2 c3 be
       1.2566062 0.46078488 1.5538715 -0.38271284
0002d0 04 10 85 bf da 95 b8 3f a8 99 07 3f e3 ea 10 40
       -1.0395513 1.4420731 0.52968836 2.2643363
0002e0 a6 5f 43 bf 30 4f a1 be 6e ce 38 bd 04 e7 41 3f
       -0.7631782 -0.31505728 -0.04511874 0.75743127
0002f0 7a 03 5a bf 54 3e 3d bf 2e 66 b5 3f e6 29 14 40
       -0.85161555 -0.7392323 1.4171808 2.3150573
000300 1c f5 25 3e 46 bc 9e 3f aa ab a9 bf 41 37 3b 3f
       0.16206783 1.2401206 -1.3255513 0.73131186
000310 08 60 5f be 40 79 cb bf aa 57 15 bf 20 2e 98 bf
       -0.21813977 -1.5896378 -0.5833689 -1.1889076
000320 a0 64 2b bf 32 81 7e bf 78 da b4 3f 51 95 d4 3f
       -0.66950417 -0.99415886 1.4129171 1.6608068
000330 9e bc 09 3f 32 31 54 3f 79 af 50 3e 47 97 02 bf
       0.5380343 0.82887566 0.20379438 -0.5101208
000340 b8 9a 8b 3d 6b 2f 57 c0 d6 6b cc be b2 64 a3 bf
       0.0681662 -3.3622692 -0.39926022 -1.2765105
000350 be d4 10 c0 2e 53 41 bc a4 b2 a9 bf 6c 54 84 3f
       -2.2629848 -0.011799617 -1.3257642 1.0338264
000360 70 53 54 3f 3f 60 22 3e fa 11 ca 3f 14 4b 81 be
       0.82939816 0.15857027 1.5786736 -0.25252593
000370 b9 9f 9a bf 90 40 bf 3f 46 22 40 3f ae ae 6d be
       -1.2079993 1.4941578 0.750523 -0.23211166
000380 d0 f1 34 bf 28 b1 22 bf 1c 26 a5 bf 50 c9 c6 3e
       -0.70681477 -0.6355157 -1.2902255 0.38825464
000390 ce 85 58 3f ff 64 bd be d2 69 19 be 12 dd 48 3e
       0.8457917 -0.36991116 -0.14981773 0.19615582
0003a0 e6 27 6e be fb 8c 0a c0 0f 7c d4 3d a2 a6 a8 be
       -0.23257408 -2.1648548 0.10375225 -0.3293963
0003b0 7a 4e 2a 3b f2 5d 3f 3e f8 a1 16 be cd e5 5c bf
       0.0025986717 0.18688181 -0.14710224 -0.8628815
0003c0 2e 02 3b bf dd de 13 bf df ae ab be 90 c0 b5 bf
       -0.730502 -0.5776194 -0.33531854 -1.419939
0003d0 81 82 9c bf a5 0f 79 bf 1a ff 90 3f 98 85 88 3f
       -1.2227327 -0.97289497 1.1327851 1.066577
0003e0 ab c1 81 bf fd 71 01 bf 76 06 db bf 99 1d 9e 3c
       -1.0137228 -0.5056456 -1.7111347 0.019301223
0003f0 4e 38 db 3e 2d e9 f2 be 1e 12 bb 3f d5 4d 2e bf
       0.42816395 -0.47443524 1.4614904 -0.6808751

input_embeddings.embeddings.month.weight f4 [12, 6]
000000 80 83 cd 3f a1 e1 8b 3f b5 2d 08 3f b5 84 65 3e
       1.6055756 1.0928231 0.53194743 0.22413905
000010 1e 8d 37 bf e0 04 ac 3f 48 5c e9 bd 34 e1 87 3f
       -0.716997 1.3438988 -0.113945544 1.0615602
000020 1f b4 16 bd 70 85 92 3f ce 74 66 be 26 72 97 bc
       -0.03679287 1.1446972 -0.22505495 -0.018487047
000030 75 25 1c 3f e4 0d 52 3e 72 47 3b 3f 4d e0 54 3e
       0.60994655 0.20513111 0.7315589 0.20788689
000040 df 9a 76 3f 58 0f b1 3c e5 d3 f1 bf 5b 3e 2e 3f
       0.96330065 0.021613762 -1.889279 0.68063897
000050 f6 71 64 3e ec 7d 1c 40 5d 2a 93 be 8f 96 81 3e
       0.22309098 2.4451857 -0.28743258 0.2531018
000060 ba 8d 01 40 50 bc a6 3f 8e 7d 07 bf 96 5e f0 3f
       2.0242753 1.3026218 -0.52925956 1.8778865
000070 ae e8 e8 3e e7 e8 e8 be 14 fb 24 3f a5 de 72 3e
       0.4549002 -0.4549019 0.64445615 0.23717745
000080 e9 b5 eb be 9c 74 05 bf 65 fa 89 3f ef 5d 00 3f
       -0.46037224 -0.52131057 1.0779539 0.5014333
000090 5c d0 39 bf aa 12 00 40 e7 17 2a 3e 72 59 ce 3f
       -0.72583556 2.0011392 0.1661068 1.6121047
0000a0 a6 d9 09 3f f7 e4 07 c0 fd 89 45 3f 44 89 bd bd
       0.5384773 -2.12335 0.7716368 -0.09254697
0000b0 43 7f 3d be 0e 43 ba 3e ce 9d 8e bf 74 c3 e2 bd
       -0.18505578 0.36379284 -1.1141908 -0.11072436
0000c0 58 12 2f c0 8c f4 81 3f 1e 68 2e 40 e5 0b 86 bf
       -2.7354946 1.0152755 2.7251048 -1.047238
0000d0 54 11 0b 3f ec a4 f7 3e 42 2f d1 bf 72 c8 96 be
       0.54323316 0.48368013 -1.6342547 -0.29449803
0000e0 82 1a e3 bf 36 a6 6e bf e0 35 03 40 40 23 dd 3e
       -1.7742465 -0.9322237 2.0501633 0.43190956
0000f0 2e 32 17 bf a0 95 78 bf 48 8c 8b bf 2d a2 17 3f
       -0.59060943 -0.9710331 -1.0902185 0.59231836
000100 cc 28 58 3c 68 3b b6 3d ee 4f a3 bf 4c 5d ba 3f
       0.0131933205 0.088980496 -1.2758768 1.4559722
000110 8a 74 30 bf 3e 8d 2c bf 26 6c 8b bf 47 00 1a bf
       -0.68927824 -0.6740302 -1.0892379 -0.60156673

prescalers.encoder_length.weight f4 [8, 1]
000000 c4 84 3d bf 64 67 00 bf 46 79 b8 3e 7b 2f e7 3e
       -0.7403071 -0.5015776 0.36030024 0.45153412
000010 5a 29 40 3f bb a2 50 bf 24 db d8 3e 79 ff 41 bf
       0.750631 -0.81498307 0.4235469 -0.75780445

prescalers.encoder_length.bias f4 [8]
000000 ba 9e 5d be 90 ce 8b 3e d6 40 f4 3e 62 58 99 bd
       -0.2164258 0.27306032 0.47705716 -0.07487561
000010 79 c1 f8 3e 1f aa 07 bd 08 20 75 bf 79 24 8c be
       0.48585108 -0.033121224 -0.95752 -0.27371576

prescalers.dataUsage_center.weight f4 [8, 1]
000000 4e 0f bd 3e 7a 7d f7 be cb f1 ee be 78 f6 9f 3e
       0.3692574 -0.4833792 -0.46668848 0.31242728
000010 51 21 14 3e a9 66 c5 be 89 b0 36 3f da 56 75 bf
       0.14465834 -0.38554886 0.7136312 -0.9583565

prescalers.dataUsage_center.bias f4 [8]
000000 12 16 a8 bb 31 3e f4 bd 88 87 0f bf fc 1b 07 bf
       -0.005129584 -0.119259246 -0.5606618 -0.52777076
000010 a6 d7 de bd 72 db 7a bf 9c d8 93 3d 0f f0 22 be
       -0.108809754 -0.97991097 0.07219049 -0.15911888

prescalers.dataUsage_scale.weight f4 [8, 1]
000000 8e fc 55 bf 49 12 de 3d 37 ee 84 3e d2 0d 0d bd
       -0.8358849 0.10843331 0.25962994 -0.03443701
000010 28 a8 92 3d e0 1d 07 be 70 da 1a bf 0b 75 0d be
       0.071609795 -0.1319499 -0.6048956 -0.1381418

prescalers.dataUsage_scale.bias f4 [8]
000000 b8 00 20 3f 51 65 19 bf 5c 1c 13 3b 19 4e 09 3f
       0.62501097 -0.5992022 0.0022447323 0.5363479
000010 90 37 ab 3d 30 ca ab 3e af 81 21 3f 90 7f d8 bd
       0.08360207 0.33552694 0.63088506 -0.105712056

prescalers.date.weight f4 [8, 1]
000000 d4 24 04 bf ec 4a 0b bf 01 f8 8d be 32 16 fe bd
       -0.51618695 -0.54411197 -0.27728274 -0.12406577
000010 84 01 f2 3e 86 c2 3f 3f d4 6a 30 bf a6 4f 6b 3f
       0.4726678 0.74906194 -0.68913007 0.9191841

prescalers.date.bias f4 [8]
000000 86 37 09 3f f4 94 2f 3f ca b8 b7 be 8a fc 14 bf
       0.5360035 0.6858666 -0.3588317 -0.58197844
000010 8a 81 6c 3f a0 91 81 bf ed db e4 bd ab 4a 6f 3f
       0.9238516 -1.0122566 -0.1117476 0.9347331

prescalers.relative_time_idx.weight f4 [8, 1]
000000 6e 75 39 bf 34 b8 77 3f a8 98 8e 3e 24 9e 62 bf
       -0.7244481 0.96765447 0.27850842 -0.88522553
000010 87 fc 8d 3e 74 ae 4e 3e 74 b7 d3 3e 1e 72 65 bf
       0.27731726 0.20183736 0.413509 -0.89627254

prescalers.relative_time_idx.bias f4 [8]
000000 09 86 c3 3e 8a 63 5d bf aa 8b 51 3f bc 92 10 3f
       0.38188198 -0.8648001 0.81853735 0.564739
000010 fa e9 26 bf 2f b7 5a 3e cb 09 a9 be b9 61 f3 3e
       -0.6520077 0.21358941 -0.33015284 0.47535494

prescalers.dataUsage.weight f4 [8, 1]
000000 8a 0c 61 bf 76 5a 37 3b ec b6 43 bf 26 79 46 3f
       -0.8790976 0.0027977503 -0.7645099 0.7752861
000010 24 15 e1 3e b9 8c 3f bf ba 71 39 3f 95 b1 68 3f
       0.43961442 -0.748241 0.7243916 0.9089597

prescalers.dataUsage.bias f4 [8]
000000 bc 9a 10 bf 59 41 0a bf 6d 2a 59 3f de 3d 30 bf
       -0.56486106 -0.5400596 0.8483036 -0.688444
000010 64 7a 3f 3f 4c a2 50 3e 4c 9d 6f 3f 5a 52 00 3e
       0.7479613 0.20374411 0.9359939 0.12531415

static_variable_selection.flattened_grn.resample_norm.mask f4 [6]
000000 37 20 97 3c 64 64 93 bc 5a f3 c0 ba 0e c2 1c bc
       0.018447978 -0.017992206 -0.0014720962 -0.009567751
000010 c9 d2 74 3c 50 66 d7 3b
       0.014942833 0.006573476

static_variable_selection.flattened_grn.resample_norm.norm.weight f4 [6]
000000 42 64 82 3f 2d 11 7b 3f 2f 85 7d 3f cf 9d 7c 3f
       1.0186846 0.98073083 0.9903135 0.98678297
000010 cf 59 7f 3f 5c 2e 80 3f
       0.9974641 1.0014148

static_variable_selection.flattened_grn.resample_norm.norm.bias f4 [6]
000000 bb 9b ab 3c 91 e1 99 bc 50 d9 b8 bb ed 71 55 bc
       0.020948282 -0.018784316 -0.00564114 -0.01302765
000010 c6 e0 76 3b 67 f2 aa bb
       0.0037670597 -0.005216885

static_variable_selection.flattened_grn.fc1.weight f4 [6, 53]
000000 ec 52 b9 bc 30 b2 15 be 9c 63 cf bd 32 14 13 3e
       -0.022622548 -0.14618754 -0.10126421 0.14363173
000010 5a 6c 35 3d 4d 77 2b be 20 9a dd 3d 32 55 99 be
       0.044292785 -0.16744728 0.10820413 -0.2994781
000020 2c 05 9c 3c fc ec 46 be be f2 f4 bd ff 8d 1e be
       0.019045435 -0.1942634 -0.11960362 -0.15483855
000030 ba 38 86 be 15 c6 a2 be b4 19 b2 3d d5 3b 00 bd
       -0.26215154 -0.3179175 0.08696309 -0.03130706
000040 da 64 09 bf 3e 92 75 bb 9a b0 1f 3e 2e ce 85 3e
       -0.5366951 -0.00374712 0.15594712 0.26133865
000050 37 b9 03 3c 7c ce 1e 3e e8 36 98 3e 80 e9 25 be
       0.008039764 0.15508455 0.2972939 -0.16202354
000060 58 c2 32 3e d6 f5 59 3d 22 1c 84 3d dd ea c8 be
       0.17456949 0.053212963 0.064506784 -0.39241686
000070 5c 44 8c 3d 5a 78 00 3e fe 6c fb bd ef b0 fa bc
       0.06848976 0.1254591 -0.12276648 -0.030601947
000080 9c 7f bb be 87 21 25 be d0 d8 57 be 70 d1 38 3e
       -0.36620796 -0.16126071 -0.21078801 0.18048644
000090 34 bf 65 be fa 63 58 3e 07 7e cd be 36 1b 99 3d
       -0.2243622 0.21131888 -0.40135214 0.07475893
0000a0 3d 4b 82 3d f6 78 15 bc fc 54 2c 3d c2 d1 32 bd
       0.06362007 -0.009123078 0.042073235 -0.043657072
0000b0 ea d7 07 3e 91 90 d3 bd 12 29 95 3d 72 1c 2a be
       0.13265958 -0.10330308 0.07283224 -0.16612414
0000c0 67 dc a6 3e be ef 37 3c 8e 35 13 bd 6f ed 1a be
       0.3259003 0.011226593 -0.035939746 -0.15129636
0000d0 b2 1f 8c 3d 60 63 03 3e 8a 1d c2 3d e4 df a1 3e
       0.06841983 0.12830877 0.094782904 0.31616127
0000e0 12 09 80 bc 82 aa de be f0 9f 7c 3e a2 5d ba 3e
       -0.015629325 -0.43489462 0.24670386 0.3639956
0000f0 5a eb 9a be 06 ca 2c be 3a 3d 29 3e 3a c6 5c 3e
       -0.30257684 -0.16873941 0.16527262 0.21559992
000100 e0 a0 b2 3e f6 7d 58 3e ee cf 36 be 8d 70 cd 3d
       0.34888363 0.211418 -0.17852756 0.10031233
000110 d2 4d a4 3e 6c fe 62 be 5b 2a 0c be ca b5 cf 3c
       0.32090622 -0.22167367 -0.13688032 0.025355238
000120 73 32 7b 3d 65 c8 93 3d c2 71 68 bd fe eb fa bd
       0.06132741 0.072159566 -0.056749113 -0.12252043
000130 30 e7 19 be c0 35 f8 3d d8 5f d5 bd 80 e1 47 3e
       -0.15029597 0.12119627 -0.10418671 0.19519615
000140 d0 cd 0a be ea 3b 86 3d 72 f6 26 3e bc cb 8b 3e
       -0.13555074 0.065543965 0.16304949 0.27303874
000150 2f 0c 15 3e 5c 64 82 be 88 1d 57 3d 48 3a b4 bd
       0.14555429 -0.25467193 0.052518398 -0.08800179
000160 0e 87 ad 3d 32 6b 52 bd 94 0c a2 3c 96 e8 3f 3e
       0.08473025 -0.05137176 0.019781388 0.18741068
000170 16 04 3e 3e 1a de ad bc 68 8b a5 3e 68 95 15 3b
       0.18556246 -0.02122407 0.3233292 0.0022824649
000180 f0 b3 fa be 76 3e aa be 3a 9c 13 3d 2f 2e 06 be
       -0.48965406 -0.3325078 0.03603766 -0.13103555
000190 30 2e a5 bd 7f 46 e4 bd 83 c8 96 bc b1 39 67 3d
       -0.0806545 -0.111462586 -0.018406158 0.056451503
0001a0 e0 ff d5 bd 08 27 39 be b5 b3 cd 3d 16 35 81 3d
       -0.10449195 -0.18081295 0.10044042 0.063089535
0001b0 b7 ff bb 3d 36 b0 d2 bd 6d c5 ad 3e 98 6f d3 3d
       0.09179633 -0.10287516 0.33939686 0.10324019
0001c0 0e d0 e6 bd a2 26 bc 3e c3 ec 2c be c6 49 b1 3e
       -0.11270152 0.36748224 -0.16887192 0.34626597
0001d0 76 b9 9b be 52 69 86 3e 90 63 9e 3e 84 8e a1 bd
       -0.30414933 0.26252228 0.30935335 -0.07888511
0001e0 dd b1 a4 3e c7 50 ee bd 2f e5 76 3d 3a c6 ac 3e
       0.3216695 -0.11636501 0.06027716 0.33744985
0001f0 86 81 c0 3d 0a 97 17 3e 93 a5 9f bd e6 43 84 3d
       0.09399705 0.1480371 -0.07795253 0.06458263
000200 34 d3 d1 3d 50 4d 40 be 14 61 51 bd d4 6c 1f bd
       0.10245362 -0.18779492 -0.05111797 -0.038922146
000210 14 9a 65 3e 15 52 72 be 27 0f 50 3e 5e 27 08 3e
       0.22422057 -0.23664124 0.2031828 0.13296267
000220 2e a0 59 be 96 26 1d bd 09 7a 32 be 10 b6 20 3e
       -0.2125251 -0.038366877 -0.17429365 0.15694451
000230 5d 42 13 be 28 d8 b9 be cc fb 20 be bd 25 ee bd
       -0.14380784 -0.36297727 -0.15721053 -0.11628292
000240 91 f4 41 3e f4 21 2a be e4 f9 8d 3e d8 d6 99 3e
       0.18940951 -0.16614515 0.27729714 0.30046725
000250 28 0e 2e be 3a f3 30 3d 3a 5f 6b 3e 86 70 14 be
       -0.16997588 0.04320071 0.22985545 -0.1449605
000260 58 7d 36 3e bb 58 b2 bc 76 55 b2 3d 22 97 b8 be
       0.17821252 -0.021770826 0.08707707 -0.36052805
000270 42 63 0c be d0 3b fc 3d ce e9 c0 bd 8c 3a 8d 3e
       -0.13709739 0.12316096 -0.09419595 0.2758373
000280 c8 5d 2e be ba 7f 13 3f 9b e6 c6 bd 26 64 f2 be
       -0.17027962 0.5761677 -0.09711953 -0.47342032
000290 6e a1 4e bd 5f cb db 3d 2e 73 59 bd 5e 3f 49 be
       -0.05044692 0.10732149 -0.05308836 -0.19653079
0002a0 5e 6a 9c be 22 3a 7b 3d ad 07 33 be b3 03 10 3c
       -0.30549902 0.061334737 -0.17483397 0.008789944
0002b0 e6 78 f0 3e 2c bb e5 bd 06 92 c7 bd 5d 9c 01 3e
       0.46967238 -0.11217341 -0.09744649 0.12657304
0002c0 be 02 e2 be e3 62 1a be 0e e6 2b be f4 4b f5 bd
       -0.44142717 -0.15076785 -0.16786978 -0.119773775
0002d0 13 74 7d be bc 24 1a be 4e ea 1e 3e 2d 10 8c 3e
       -0.2475131 -0.15053076 0.15519068 0.2735609
0002e0 d4 19 93 bd c2 40 5e be 15 8d 63 3e c8 98 ad 3e
       -0.07182661 -0.2170439 0.22221787 0.33905625
0002f0 c0 3b b3 bd f2 38 42 be aa c4 5a 3e e4 13 f7 bd
       -0.08751631 -0.18967035 0.21364084 -0.12064341
000300 eb b7 80 3d 82 c0 d7 bd 70 18 77 3d 13 e3 39 bd
       0.062850796 -0.10534765 0.06032604 -0.04538257
000310 e9 ea 9f bc b2 41 b6 be 28 9d 2f bc 52 c3 bb bc
       -0.019521194 -0.35596997 -0.010718621 -0.022920284
000320 6e a1 85 bd 1a e7 42 3d 34 9b d4 3d 5a 68 da 3e
       -0.06524931 0.047583677 0.10381165 0.4265774
000330 d2 89 cc bd 99 1f 15 3e b7 2e ee bd 47 3f 04 bd
       -0.09987225 0.14562835 -0.11630004 -0.03228691
000340 f1 f7 44 be 43 4a 12 be f4 e2 81 3e 8a 06 78 be
       -0.19235207 -0.14286141 0.25368464 -0.24221244
000350 71 71 ab bc 50 a9 ac bd 32 7d 98 3c 3f d2 47 3d
       -0.020928117 -0.08430731 0.018614385 0.04878449
000360 9a 60 6a bd 09 48 8c 3e bf da 5b 3e 3c ff 1f be
       -0.057221033 0.27398708 0.21470164 -0.15624708
000370 06 76 b6 be 57 69 1c 3e b0 38 e1 be 42 b5 a4 3e
       -0.3563692 0.15274559 -0.43988562 0.3216954
000380 87 cf 18 3e a8 c2 26 3d 50 91 07 3e 0f a0 53 bd
       0.14922915 0.040712982 0.13239026 -0.051666316
000390 b6 e6 48 3c 34 51 dc be 56 0d dc be fd ea e8 3d
       0.012262037 -0.43030703 -0.42978925 0.113729455
0003a0 da 18 4b 3e 47 4b d4 be 56 80 a2 be 32 2d 85 bd
       0.19833699 -0.41463682 -0.31738538 -0.06502761
0003b0 a4 f0 b1 be 9f b4 56 be a8 76 1a bd c2 59 1f be
       -0.34753907 -0.20967339 -0.037710816 -0.15561584
0003c0 f8 7a c0 3d 53 ce 81 be d5 68 81 bb fc 20 61 bd
       0.093984544 -0.25352725 -0.0039492645 -0.054963097
0003d0 f6 28 af 3d 44 66 ac bd 4c a3 0c 3e d4 5c b9 bd
       0.085527346 -0.08417943 0.13734168 -0.09050909
0003e0 14 98 02 bf 92 e2 3f be 2a ba cf 3d e2 75 42 be
       -0.510133 -0.18738773 0.1014293 -0.18990281
0003f0 ef 56 be 3c 1c 8d 35 be 06 bd 07 be 7f d6 fb 3d
       0.023234813 -0.1772961 -0.132557 0.12296771

static_variable_selection.flattened_grn.fc1.bias f4 [6]
000000 50 46 86 bc 41 ca 8b 3c 1c e3 5e 3b cf d8 9c 3c
       -0.01639095 0.017064216 0.003400988 0.019146351
000010 74 df 04 3c 6e 69 86 3c
       0.008109916 0.016407695

static_variable_selection.flattened_grn.fc2.weight f4 [6, 6]
000000 4e bb 2e bf 28 b9 a7 3e b8 b8 65 3f ce 8b 3d 3f
       -0.68254554 0.3275845 0.89734983 0.7404145
000010 fc 2f a7 3f ae 06 b2 3f 16 84 26 3f 26 a8 33 3d
       1.3061519 1.3908288 0.650453 0.04386153
000020 10 13 46 3e 7a 63 6b bf 28 79 a9 3f 84 eb 50 be
       0.1934321 -0.91948664 1.3240099 -0.20402342
000030 68 c1 b1 bc ac ef 39 3e f4 b9 af be 16 27 90 bf
       -0.021698669 0.18157834 -0.34321558 -1.1261928
000040 bd 4a d2 3e b9 82 90 3e 2b cf ca 3e 88 a5 5e be
       0.41072646 0.28224733 0.39611182 -0.21742833
000050 50 f2 f5 3e ba 09 9a bd 13 38 53 3f 94 e3 8f bf
       0.48036432 -0.075213864 0.8250744 -1.1241326
000060 c6 6e 90 be 90 67 5d 3f b5 52 b4 be 63 a1 8c 3f
       -0.28209513 0.8648615 -0.3521935 1.0986751
000070 1c 1a b8 be db 26 0c 3f 7e 53 b3 be 8a 6e 1a 3f
       -0.3595742 0.5474679 -0.35024637 0.6032492
000080 52 c3 8b be 56 89 c5 3d 16 e7 25 be b7 57 d8 3e
       -0.27297455 0.096453354 -0.16201434 0.4225442

static_variable_selection.flattened_grn.fc2.bias f4 [6]
000000 af 76 8d 3c e6 da 07 3c 70 cf 43 bc 4a 95 be bb
       0.017268507 0.008291936 -0.011951312 -0.0058161365
000010 6c 5d 88 3c df c1 68 3c
       0.01664611 0.014206379

static_variable_selection.flattened_grn.gate_norm.glu.fc.weight f4 [12, 6]
000000 ec 97 f9 3d 44 38 23 3e 5e 84 ae be 0c 1f 78 3d
       0.1218718 0.15939432 -0.34085363 0.060576484
000010 8e c8 ef 3e 18 70 0e 3f a0 c1 f6 be 71 de 01 3f
       0.468327 0.5563979 -0.481946 0.50730044
000020 de 67 97 be 74 5f 88 3b 88 fc af bd 86 66 8b 3e
       -0.29571432 0.0041617695 -0.085930884 0.27226657
000030 04 12 13 bf 23 35 86 3d 3e 82 35 3e 32 8d 92 be
       -0.57449365 0.06553104 0.17725465 -0.28623348
000040 19 45 68 3e 07 7d d9 3e 50 55 92 bd b2 bc 0b 3f
       0.22682609 0.424782 -0.07145178 0.545848
000050 50 d4 07 3f 4e a0 38 be 12 9c d0 be 50 66 c1 be
       0.5305834 -0.18029901 -0.40744072 -0.3777337
000060 09 ab 88 3e 73 72 03 3f 26 51 b8 3e 66 59 06 3e
       0.2669299 0.5134651 0.3599941 0.1312004
000070 60 cb 7c 3d 74 10 fb 3e ac d0 c5 be 74 b2 6c 3e
       0.06171739 0.4903599 -0.38635767 0.2311495
000080 80 b4 b7 be e8 a6 ab 3d 0b 9d fd 3d 60 c6 05 bf
       -0.35879898 0.08381444 0.12383469 -0.5225582
000090 0e ee c9 3e 10 02 e0 3c 03 76 1f 3e 53 29 bb be
       0.39439434 0.027344733 0.15572362 -0.36554965
0000a0 a4 a7 92 3e a3 03 3b 3d 18 89 f4 be 9c ab 54 be
       0.28643525 0.045657765 -0.47760844 -0.20768589
0000b0 b9 95 67 3d 82 2a af 3e 1e 78 5f be 8e 40 0c bf
       0.05653927 0.34212118 -0.21823165 -0.54786
0000c0 e4 8d 18 be c0 1c 01 bf 25 1f a9 be 84 9b 3a be
       -0.14897877 -0.50434494 -0.33031574 -0.18223387
0000d0 0e 04 ca 3e f0 27 0a 3f 0e cf 0c 3e 63 1f cf 3e
       0.39456218 0.5396719 0.1375086 0.40453634
0000e0 c0 e1 3e 3e 1a 1d 06 3e c0 2c 75 bd 36 71 ff 3e
       0.18640804 0.13097039 -0.05985713 0.4989106
0000f0 88 b1 bf 3e 18 5e 04 bf d4 d3 4d 3e d8 7b bb 3e
       0.37440133 -0.51706076 0.20100337 0.36617923
000100 60 4f 01 3e 14 9d 10 bd 34 48 73 bd 92 aa 7a be
       0.12627935 -0.03530605 -0.05939503 -0.2447913
000110 84 16 af be b8 95 63 3e bf 9f f3 be 26 67 94 3e
       -0.34196866 0.22225082 -0.47582814 0.28984946

static_variable_selection.flattened_grn.gate_norm.glu.fc.bias f4 [12]
000000 ba 5a a4 3c 88 73 77 bc 5b 3c 2c bc 3c 37 21 bc
       0.020062793 -0.015103228 -0.010512437 -0.009839829
000010 82 14 8e 3b 38 49 86 bb b8 21 9b 3c 5b 72 10 3c
       0.004335941 -0.004098084 0.018936977 0.008816327
000020 61 98 54 bb d9 92 27 3c 7a f0 19 bc e8 aa 89 bb
       -0.0032439458 0.010227882 -0.009395713 -0.004201282

static_variable_selection.flattened_grn.gate_norm.add_norm.norm.weight f4 [6]
000000 d8 94 82 3f ce d6 7a 3f cf d2 7c 3f 3d 6f 7d 3f
       1.0201674 0.97984016 0.9875917 0.9899786
000010 24 f9 7e 3f 53 0e 7f 3f
       0.9959891 0.9963123

static_variable_selection.flattened_grn.gate_norm.add_norm.norm.bias f4 [6]
000000 1e c6 aa 3c d0 c9 a7 bc 50 e0 42 bc b5 46 6a bc
       0.020846423 -0.020481974 -0.011894301 -0.014299084
000010 a0 49 c9 bb 86 c8 19 bc
       -0.00614281 -0.009386187

static_variable_selection.single_variable_grns.wanProvider.mask f4 [16]
000000 3c e0 3b bc c6 48 82 3c 54 dd 87 bc fc a8 ee bb
       -0.011467036 0.015903842 -0.01658503 -0.007283328
000010 a4 c1 8a bc cd 1c 8f 3c c3 d9 96 3b 81 56 80 bc
       -0.016938038 0.017469788 0.004603596 -0.015666248
000020 a4 9d 83 3c f0 ec 2a 3c 28 2a 4d 3c 21 f9 57 3c
       0.01606638 0.010432467 0.012522258 0.013181956
000030 fe 19 35 bc c3 1f 14 3b 20 4c be 39 54 f7 c2 bb
       -0.01105356 0.002260194 0.00036296342 -0.005949894

static_variable_selection.single_variable_grns.wanProvider.norm.weight f4 [16]
000000 bd 78 7c 3f 04 35 82 3f 0d 9c 7b 3f 5e f0 80 3f
       0.9862173 1.0172429 0.9828499 1.0073354
000010 8d f1 7b 3f 7c 78 82 3f 90 5f 81 3f 67 e1 7b 3f
       0.9841545 1.0193019 1.0107288 0.9839081
000020 6d 4f 82 3f 1c 0a 82 3f c0 5f 82 3f c4 6b 82 3f
       1.0180489 1.0159335 1.018547 1.0189137
000030 40 92 7c 3f f8 a4 80 3f 1e 97 7f 3f 93 63 80 3f
       0.9866066 1.0050344 0.9983996 1.0030388

static_variable_selection.single_variable_grns.wanProvider.norm.bias f4 [16]
000000 45 d4 8b bc b4 2c a0 3c c0 9f 94 bc 0f 4e 4c 3c
       -0.017068991 0.019552566 -0.018142581 0.0124697825
000010 78 e6 80 bc 62 12 a9 3c 1a 2e 76 bc 0b f5 8f 3c
       -0.015734896 0.020638648 -0.01502564 0.0175729
000020 21 59 93 bc c2 83 96 bc 26 8b 6b bc 83 12 9a bc
       -0.017986836 -0.018373374 -0.014376437 -0.018807655
000030 93 0b 91 3c cf 4a 1a 3c e5 17 49 3c ba 14 55 bc
       0.017705714 0.00941725 0.012273763 -0.01300543

static_variable_selection.single_variable_grns.fleet.mask f4 [16]
000000 15 df 7a 3c 8b 16 90 bc b5 0a 88 3c 81 f6 2e ba
       0.015311976 -0.017588874 0.016606668 -0.0006674305
000010 2d 55 46 3c 47 6a 70 bc dc 44 90 bb 30 21 74 3c
       0.012105268 -0.014673776 -0.00440274 0.014900491
000020 5e bb 6e bc 5e 80 53 bc c8 8b a4 b9 b5 10 28 bc
       -0.014571039 -0.012909023 -0.00031384663 -0.0102578895
000030 93 49 54 3c 5f f7 d1 3b 68 f9 5c 3b 12 6a b1 bb
       0.012956995 0.0064076628 0.0033717994 -0.005414256

static_variable_selection.single_variable_grns.fleet.norm.weight f4 [16]
000000 1c 21 82 3f 24 06 7b 3f 66 1a 82 3f ba d5 7c 3f
       1.0166354 0.98056245 1.0164306 0.9876362
000010 70 62 81 3f 7a 91 7b 3f fd 6e 7e 3f 5a 11 82 3f
       1.0108166 0.98268855 0.99388105 1.0161545
000020 fd 65 7b 3f 09 c0 7b 3f 22 e3 7c 3f 7c ad 7b 3f
       0.98202497 0.983399 0.9878408 0.9831159
000030 89 e3 81 3f ca f2 80 3f 73 ab 80 3f a7 27 7e 3f
       1.0147563 1.0074093 1.0052322 0.99279255

static_variable_selection.single_variable_grns.fleet.norm.bias f4 [16]
000000 ad 7e 82 bc e0 6b a1 3c 81 ee 89 bc b8 05 45 3c
       -0.015929544 0.01970476 -0.01683736 0.012025289
000010 c7 27 47 bc 3e cb a4 3c 1a fa 50 bc 1a 79 90 3c
       -0.01215548 0.020116445 -0.012754941 0.01763587
000020 f0 1b 94 bc 60 ec 92 bc bd 69 29 bc 8f bb 8e bc
       -0.018079728 -0.017934978 -0.010340151 -0.01742342
000030 a6 0f 85 3c b4 35 d1 3b 2a 7d 3a 3c 32 34 41 bc
       0.016242813 0.0063845757 0.0113823805 -0.0117922295

static_variable_selection.single_variable_grns.trainName.mask f4 [16]
000000 58 d0 59 b8 65 2b 9b bb 16 9e 0c bb 88 a3 15 3a
       -5.1930867e-05 -0.0047353976 -0.0021456531 0.0005708267
000010 22 13 8f ba 70 4f cc 3b 13 4e e7 3a 86 d1 09 3b
       -0.0010915736 0.0062350556 0.0017647169 0.0021029427
000020 b2 3c 26 bc 80 59 3b bb f5 f2 d7 3a 12 46 76 3b
       -0.010146307 -0.0028587282 0.0016475605 0.0037578386
000030 e0 ca 06 3b 63 64 eb b9 34 fd db 3a 38 ca 9a 3b
       0.00205677 -0.00044897487 0.0016783834 0.0047238134

static_variable_selection.single_variable_grns.trainName.norm.weight f4 [16]
000000 07 8b 7f 3f a3 77 7d 3f d5 fb 7e 3f a6 9a 7e 3f
       0.99821514 0.99010676 0.99603015 0.99454725
000010 fa 23 7f 3f 82 d3 80 3f 2a 0c 80 3f 78 c3 7f 3f
       0.9966427 1.0064547 1.0003712 0.99907637
000020 a7 d0 7c 3f 0c 35 7f 3f 17 28 80 3f 10 95 80 3f
       0.9875588 0.9969032 1.0012234 1.004549
000030 b0 7b 7f 3f 3e 16 7f 3f b4 53 7f 3f b3 72 80 3f
       0.9979811 0.99643314 0.99737096 1.0035003

static_variable_selection.single_variable_grns.trainName.norm.bias f4 [16]
000000 9d 58 89 bc 50 41 a8 3c b5 cd 93 bc db 06 16 3c
       -0.016765887 0.020538956 -0.018042425 0.009156908
000010 43 4c 37 bc 34 1f a8 3c 8e 25 2b bc bc 99 6b 3c
       -0.011187616 0.020522691 -0.010445965 0.014379915
000020 8e 4d 97 bc 25 08 95 bc 60 e9 40 bc 3d e4 88 bc
       -0.018469598 -0.01819236 -0.011774391 -0.016710395
000030 07 79 89 3c 44 e6 d4 3b e4 00 16 3c 6f 3d 54 bc
       0.016781343 0.0064971764 0.009155486 -0.0129541

static_variable_selection.single_variable_grns.encoder_length.resample_norm.mask f4 [16]
000000 9c 74 8b 3c ae a2 80 bc 76 94 22 3b 3e f6 a5 3b
       0.017023377 -0.015702572 0.0024807728 0.0050647547
000010 1e f1 3c bc 0a 6f 95 3c f7 5c db bb 1b 2c 30 3c
       -0.011532096 0.018241424 -0.006694432 0.010752703
000020 6f e5 49 bc 20 87 8b bc 30 5a 89 3a d5 8b 52 3c
       -0.012322768 -0.017032206 0.0010479148 0.012850721
000030 bd 18 68 bc 23 49 f2 bb e3 b2 1c bc 08 a2 79 3c
       -0.014166054 -0.0073939725 -0.009564134 0.015236385

static_variable_selection.single_variable_grns.encoder_length.resample_norm.norm.weight f4 [16]
000000 0f 70 82 3f a0 8c 7b 3f 4c b7 7f 3f b0 1a 81 3f
       1.0190448 0.9826145 0.99889064 1.0086269
000010 2c 31 7c 3f 34 a6 82 3f d6 52 7d 3f f4 d2 81 3f
       0.9851253 1.0206971 0.9895452 1.0142503
000020 06 4b 7c 3f e4 da 7a 3f d6 fe 7f 3f 9e f3 81 3f
       0.98551977 0.9799025 0.99998224 1.0152471
000030 2e 9f 7b 3f 53 dd 7d 3f a9 38 7d 3f 82 57 82 3f
       0.98289764 0.9916584 0.9891458 1.0182955

static_variable_selection.single_variable_grns.encoder_length.resample_norm.norm.bias f4 [16]
000000 13 5b 9b bc 59 16 a7 3c c4 6e 80 bc 53 13 35 3c
       -0.018964326 0.020396398 -0.015677817 0.0110519705
000010 d5 12 69 bc 0f 77 aa 3c d3 ae 44 bc 6d 47 7a 3c
       -0.014225681 0.020808725 -0.012004572 0.015275818
000020 6e ea 65 bc ee b7 9d bc 28 74 ca bb 02 c9 86 bc
       -0.014032943 -0.019252744 -0.0061783977 -0.01645327
000030 c6 18 8a 3c 15 eb fd 3b 2e 4b 2e 3c 12 d8 92 bc
       0.016857516 0.007748971 0.010638041 -0.017925296

static_variable_selection.single_variable_grns.encoder_length.fc1.weight f4 [8, 8]
000000 ae 56 4c be c2 0b 19 3f 34 78 68 be 86 39 d7 bf
       -0.1995494 0.59783566 -0.22702104 -1.681443
000010 1b 01 db 3e 3e 1a 1e 3f 9c 0d 22 3d 2c 87 34 3f
       0.4277428 0.6175879 0.03956376 0.70518756
000020 8c a1 18 3f c7 3b 62 3f 9c d2 96 be 53 47 8b 3e
       0.596215 0.88372463 -0.29457557 0.27202854
000030 cb 31 81 be a2 f5 b2 3e 60 8b 10 be 2a 63 24 be
       -0.25233302 0.34953028 -0.14115667 -0.16053453
000040 c7 1a d7 3e 91 11 d8 be d5 64 99 bc 3f 60 da 3d
       0.42012617 -0.42200902 -0.018724838 0.10662889
000050 17 e6 21 3f e7 d0 87 3d a0 92 09 3e 8a cc 9a be
       0.63241714 0.06631642 0.13434839 -0.30234176
000060 6a 51 30 3f 26 77 0f bf 26 e1 45 bf 23 b7 76 bf
       0.6887423 -0.5604118 -0.77296674 -0.96373194
000070 cb 73 c6 3d 74 53 98 3e b0 f7 94 be 04 60 b7 3d
       0.096900545 0.2975117 -0.2909522 0.089538604
000080 82 5d 11 3e 53 be 14 bf 4e 7c 3e 3f 00 25 bc 3e
       0.14195827 -0.5810291 0.74408424 0.3674698
000090 20 af be 38 a6 7f 74 be 0e 2e 26 3d d2 1a a7 bf
       9.0925256e-05 -0.23876819 0.040571265 -1.305506
0000a0 5e d5 37 be dc 06 8a be f2 29 bc be 80 5a 4d be
       -0.17952487 -0.26958358 -0.36750752 -0.20054054
0000b0 b6 17 8e bd 60 5a 95 bc ae 31 0e 3e 52 07 52 3e
       -0.06938116 -0.01823157 0.13886139 0.20510605
0000c0 3c 15 11 3e c0 0e 17 3e fa ea ee 3d 3a 61 76 bf
       0.14168257 0.1475172 0.11665912 -0.96242106
0000d0 2e 13 dc 3e 40 7e b3 3b 92 41 1d be 5a 13 d9 be
       0.42983383 0.0054776967 -0.15357044 -0.42397577
0000e0 72 f3 b4 3e a5 b0 36 bd 46 a6 94 3f 0c d0 c7 be
       0.35341984 -0.044602055 1.1613243 -0.39025915
0000f0 ca 50 98 be 55 6f e1 be aa c0 0e 3e 29 7a f0 be
       -0.29749137 -0.44030252 0.13940683 -0.469682

static_variable_selection.single_variable_grns.encoder_length.fc1.bias f4 [8]
000000 f6 f1 0d 3b ee f7 1f 3c 8a c9 1f 3c bd bb 5d 3a
       0.0021659113 0.009763701 0.0097526405 0.0008458456
000010 06 34 28 3c 5a 2f c2 3b 09 2a 1f 3c 56 2e 17 bc
       0.01026631 0.005926055 0.009714612 -0.009227356

static_variable_selection.single_variable_grns.encoder_length.fc2.weight f4 [8, 8]
000000 d4 a7 c4 3e 24 ac ab be 6e 29 f1 bd b1 cf fa 3e
       0.38409293 -0.3352977 -0.1177548 0.4898658
000010 72 f7 8a be 98 38 10 bf ac 39 13 bf 89 a8 32 be
       -0.2714191 -0.56336355 -0.57509875 -0.17447104
000020 4a 8d e0 3c 05 12 0d 3e 26 97 ab be d7 c1 74 bd
       0.027411122 0.13776405 -0.33513755 -0.059755173
000030 21 d1 58 bd fc 3a 11 3f 68 49 33 3e 9b ab 2c bf
       -0.052933816 0.5673063 0.17508471 -0.6744935
000040 e0 19 21 3f 50 b5 11 3f ee b9 27 be 76 3e ae be
       0.6293011 0.56917286 -0.1637952 -0.3403203
000050 8c 90 99 3e 40 a0 f2 bc 60 4f 87 3e 86 40 a9 be
       0.29993093 -0.029617429 0.26427746 -0.3305704
000060 21 b9 c7 bd 22 fc 1e bf 58 71 7c 3d 8c 62 8f 3e
       -0.097521074 -0.62103474 0.06163153 0.28004873
000070 39 92 05 3d e6 d3 f8 3d 70 12 e6 be 3c 27 d2 3e
       0.032610152 0.121497914 -0.44935942 0.41045558
000080 46 af 1c 3f b9 33 c7 3e da e4 8e 3d 73 3d 2a 3f
       0.61204946 0.3890665 0.06977244 0.66500014
000090 7c 2c 44 3f 42 cd fc be 42 8d 2e 3e b2 61 ef 3e
       0.7663038 -0.4937535 0.17046073 0.46754223
0000a0 db 36 e7 3e 74 a9 26 3f 2e b1 78 be 7a e9 9a be
       0.4515904 0.65102315 -0.24286339 -0.30256253
0000b0 14 c7 fd bd f2 9d 74 3e 43 db 60 bf 7a 9a 14 bf
       -0.12391487 0.23888376 -0.87834567 -0.5804821
0000c0 9f bb 9b be e3 e9 6c bd 72 b6 a7 be fa 04 f6 3d
       -0.3041658 -0.05784024 -0.32756382 0.12012668
0000d0 81 21 38 3f a0 82 dd be 44 95 aa be 08 c2 8a be
       0.7192612 -0.4326372 -0.33317006 -0.2710116
0000e0 2f da 97 3e b0 5f 18 be 58 47 09 3f 4a c3 d8 3e
       0.29658648 -0.14880252 0.53624487 0.42336494
0000f0 30 2d b5 bd 12 c7 b5 be 16 a1 36 bf 51 5d 8b be
       -0.088465095 -0.3550344 -0.7133955 -0.27219632

static_variable_selection.single_variable_grns.encoder_length.fc2.bias f4 [8]
000000 4d 89 71 bc 9e 7d 51 3c bb 90 52 bb ee c8 58 bc
       -0.014742208 0.012786297 -0.0032129723 -0.013231499
000010 d2 7c 31 3c 39 86 87 bb 52 67 d5 3a 22 7c 55 3c
       0.010832982 -0.0041358736 0.0016281402 0.013030084

static_variable_selection.single_variable_grns.encoder_length.gate_norm.glu.fc.weight f4 [32, 8]
000000 9a b2 40 3b ab 61 ba bd df 60 69 3e e6 09 ab 3e
       0.002940333 -0.0910066 0.2279086 0.3340599
000010 78 f8 83 be 2c 0a 99 bc c6 0a 90 3e 44 13 14 bd
       -0.25775504 -0.018681608 0.2813322 -0.036151186
000020 70 46 98 3c 98 9a 55 3e b4 32 a6 be 3d d3 8c be
       0.018588275 0.20859754 -0.32460558 -0.27504912
000030 ef b3 6f be 62 10 5d 3e f0 e7 86 3e 14 a1 65 bd
       -0.23408483 0.21588281 0.2634883 -0.05606182
000040 1b 6e a4 3e 7e 6a fc 3b 34 8e 4e 3e 04 f1 11 be
       0.32115254 0.0077031245 0.20171434 -0.14252096
000050 e0 b7 6d 3e 3d 9b 37 be d9 5d 84 be d0 b8 72 bd
       0.23214674 -0.17930312 -0.2585285 -0.059258282
000060 20 8b 97 be be 26 f8 3d 07 a0 4e bd 2c 2b a4 be
       -0.2959833 0.121167645 -0.050445583 -0.32064188
000070 2d 15 1e bd 74 79 07 3e 09 58 ab 3e 96 3b 4c be
       -0.038594414 0.13229924 0.33465603 -0.19944605
000080 61 09 cb 3e f3 96 ac 3e 34 6e a6 3e 7c ca a9 be
       0.39655593 0.33708915 0.32505953 -0.33162296
000090 a0 4b c8 be 11 ad 52 be c0 84 8c 3d 62 f3 b1 be
       -0.39120197 -0.20573832 0.068612576 -0.34756
0000a0 58 bd 40 3e 46 1e 89 3e 7e a3 ef 3d b2 27 9a be
       0.18822229 0.2678091 0.117011055 -0.3010841
0000b0 b5 e2 83 3e 6a 1b 50 3e 3c 4d 3e be 56 46 da 3c
       0.257589 0.20322958 -0.1858415 0.026644867
0000c0 20 81 da 3c c6 77 1c 3e f2 1a dd 3c 0e d8 28 bd
       0.0266729 0.15280065 0.026990388 -0.04122167
0000d0 24 24 de bd e6 ba 86 3e 2e 43 a8 be ae 5d a9 3e
       -0.10846737 0.26314467 -0.32863754 0.33079284
0000e0 a4 1e 94 be c0 83 31 3d 2a 33 8e 3d c1 43 c4 3c
       -0.28929627 0.043338537 0.069433525 0.023958089
0000f0 a6 46 b8 be 0a 4d 87 bd a8 e1 c3 3e ec 26 56 3e
       -0.359914 -0.06606491 0.382581 0.20913285
000100 22 52 88 bd 68 7e a6 be 7e b6 31 bc 47 ab 1d be
       -0.066562906 -0.32518315 -0.010846732 -0.15397368
000110 de 0b 98 3d 87 e6 c8 3e 3a 48 f5 bd 37 96 06 be
       0.074241385 0.39238378 -0.11976667 -0.1314324
000120 c4 cd e3 3c 94 07 20 bd b2 bb bc be 5a f8 1f be
       0.027808078 -0.039069727 -0.3686195 -0.15622082
000130 34 61 2c 3d b4 f3 36 bd ca 11 ca bc 3a 13 02 be
       0.042084888 -0.044666007 -0.024666686 -0.12702647
000140 82 34 b5 bc 5a b1 93 3e b8 af a7 3e b4 cc 36 3e
       -0.022119764 0.28846246 0.3275125 0.17851526
000150 a0 39 b5 3e f4 5c 3c 3e ce e3 33 3e ef 30 9c be
       0.35395527 0.18394834 0.1756737 -0.30506083
000160 13 92 8c 3e 5b ee 7b 3e 62 37 1f be de b8 9e bd
       0.27455196 0.24602644 -0.1554847 -0.07750104
000170 08 dd 9d bd ca 2c 57 3d 0a 71 d7 3d 62 82 6f be
       -0.07708174 0.05253295 0.10519607 -0.23389581
000180 fe 98 90 be 3a b5 a6 3d d6 75 4f 3e fa 55 53 3c
       -0.28241724 0.08140035 0.20259795 0.012898916
000190 a8 fc 55 3e 53 0f 22 3d 94 7a af be 96 76 45 bd
       0.20897162 0.039565396 -0.34273207 -0.048208795
0001a0 27 73 9f be e0 de a5 3e b8 3e e8 bd 3e a8 97 bd
       -0.31142542 0.32396603 -0.11340088 -0.074051365
0001b0 f4 3b b1 bd 08 54 68 be d8 0a 85 be 10 0c 4a 3e
       -0.08654013 -0.22688305 -0.25984836 0.19731164
0001c0 b3 90 d2 bd 46 20 7b 3e d6 bd ab bd 4a 67 9f 3e
       -0.102815054 0.2452403 -0.08385818 0.3113349
0001d0 d5 48 ae 3e e0 29 c3 be 42 5c 26 3e 80 f2 78 3e
       0.3403994 -0.38117886 0.16246131 0.24311256
0001e0 18 7c 99 3e e3 b4 21 3d fa fb 15 3d d0 c6 9a be
       0.2997749 0.039479148 0.036617257 -0.30229807
0001f0 f8 c2 c5 be 16 91 10 be f2 a3 37 be d2 a1 5a 3e
       -0.38625312 -0.14117846 -0.17933634 0.21350792
000200 a7 f0 83 bd d0 cc 2d 3e f2 a5 a9 3d 5e 5b 4a be
       -0.06442385 0.16972661 0.08283605 -0.19761416
000210 6a eb 66 be c4 e8 dc 3c 72 2f 91 3e 36 80 8b be
       -0.22550741 0.02696646 0.2835651 -0.27246255
000220 f5 bf 96 bd 4e a6 4f 3d 38 91 9e be 39 a7 46 3e
       -0.07360832 0.05069571 -0.30970168 0.19399728
000230 20 f3 b8 be d0 d3 4e 3e 25 9a 93 3e b4 13 7f be
       -0.3612299 0.20197988 0.2882854 -0.2490986
000240 61 7c 8d 3e 3c 34 96 be d9 25 9d be 11 d4 42 be
       0.27633956 -0.29336727 -0.30692938 -0.1902621
000250 ba 66 92 be ed c2 0a 3e 8b 2a d9 3d 5c cc 5f be
       -0.28594 0.13550921 0.106038176 -0.218553
000260 1f 98 51 be c4 a8 b0 be d2 8d 82 3e 4d 38 65 3e
       -0.20468186 -0.34503758 0.25498825 0.22384758
000270 f7 9f 1a 3e a9 08 0a ba 56 2b a1 be 11 78 9b 3e
       0.15100084 -0.00052655727 -0.31478375 0.3036504
000280 df 74 50 3e ae c8 53 3e d1 7f b1 be 52 2f 62 3e
       0.20357083 0.20682022 -0.3466783 0.22088364
000290 00 ae aa be cd 53 6f be 41 b1 97 3d 7c e9 27 be
       -0.33335876 -0.23371811 0.074068554 -0.16397661
0002a0 d6 fb c2 3e 98 5d 4a 3d 8d 7e 95 be 0c 07 5d be
       0.3808276 0.049405664 -0.29198113 -0.2158472
0002b0 ba fa 20 3e 8c 00 a3 3e 1e ae 31 be 84 c1 9d be
       0.15720645 0.31836355 -0.17351577 -0.30811703
0002c0 aa 45 e9 bd 4d 70 92 be 30 c4 2d 3e 26 08 c4 be
       -0.113902405 -0.28601304 0.16969371 -0.38287467
0002d0 56 c1 a2 bd 33 7b 98 be f9 e1 55 3e 3c 29 05 3e
       -0.07947032 -0.29781494 0.20886983 0.13004011
0002e0 09 7e 06 3e 9c 73 64 be 5f cc 88 bd f8 c5 b9 3e
       0.13134016 -0.22309726 -0.06679606 0.3628385
0002f0 32 86 41 be b6 3d 4b bd 41 0e 88 be 71 76 f7 3d
       -0.18898848 -0.0496194 -0.26573375 0.12083138
000300 e0 7a af be 05 ff 7d bd bf 14 51 3c 8c 9e 2c be
       -0.34273434 -0.062010784 0.012761294 -0.16857356
000310 3c 6f 81 be 0e d7 74 3e 7b 09 a4 bd c4 f3 9e 3e
       -0.25280178 0.23910162 -0.08009621 0.31045353
000320 c2 be 98 3e 2e 8f 55 be 8a 7e f2 bd 5f f1 bf 3c
       0.29833037 -0.208554 -0.11840542 0.023430524
000330 dd 47 9a bd 9e 62 76 3e 4e 4f bc 3d 50 c9 8a bd
       -0.07533238 0.24061057 0.09194814 -0.067766786
000340 d6 f9 b0 be a8 5d 24 be 1c 21 c4 be df 21 b0 3d
       -0.3456561 -0.16051352 -0.3830651 0.086002104
000350 7a 0c 53 be 1c 9c 95 3e 50 01 a3 be ba c1 6b be
       -0.20610228 0.29220665 -0.3183694 -0.2302312
000360 34 41 a6 be 0c b6 4c be 96 e2 86 3e 0e 9d 88 3d
       -0.3247162 -0.1999132 0.26344746 0.06670581
000370 90 31 b1 3c ff 80 56 bc 7a 07 08 3e 6c c1 33 be
       0.021630079 -0.0130922785 0.13284102 -0.17554253
000380 47 6e 85 3e d9 68 9e 3e 92 a6 a9 3e 02 46 19 3e
       0.26060697 0.30939367 0.33134896 0.14968112
000390 f4 b0 07 3e ac e4 72 be 7a ee bc 3e f6 fe 8d bd
       0.13251096 -0.23720044 0.36900693 -0.069333956
0003a0 2f b1 c3 be 96 4f e3 3d 14 6c f4 3d 96 4c 1a be
       -0.38221118 0.11099164 0.11934677 -0.15068278
0003b0 33 76 70 3e ac f2 47 3e 8f 22 44 3c 18 a6 39 3e
       0.2348259 0.19526166 0.01197113 0.18129766
0003c0 d8 4b 14 bd 17 2a f9 bd 9e 4f a2 be 8a ea f4 3c
       -0.036205143 -0.12166231 -0.31701368 0.029896993
0003d0 c2 29 6c 3d 5a 8d 65 be 03 98 61 3e 76 ac 13 3e
       0.05765701 -0.22417203 0.22030644 0.14421257
0003e0 16 09 85 3e 62 81 76 be c5 e4 a3 3e 72 6c 82 be
       0.25983495 -0.24072793 0.32010475 -0.25473362
0003f0 4d 49 98 be b5 98 57 be 17 61 b9 be 56 94 8d 3e
       -0.29743424 -0.21054347 -0.36206886 0.27652234

static_variable_selection.single_variable_grns.encoder_length.gate_norm.glu.fc.bias f4 [32]
000000 6e d0 86 bc fc b8 93 3c 07 5b 47 bc 38 9d 08 3c
       -0.016456809 0.018032543 -0.012167699 0.008338265
000010 77 12 35 bc 6e 39 8f 3c 63 08 2d bc 10 b3 48 3c
       -0.011051766 0.01748344 -0.010561082 0.012249723
000020 08 28 23 bc ca d4 75 bc 48 78 93 bb da 6c 72 bc
       -0.009958275 -0.015004346 -0.0045004226 -0.01479646
000030 cf da 66 3c b8 61 d6 3b b9 cf 1e 3c 6f 5a 4b bc
       0.014090254 0.0065424107 0.00969308 -0.012411698
000040 a4 26 da bb 50 48 4b bc ec 41 23 ba 32 60 72 3a
       -0.0066574384 -0.012407377 -0.00062277797 0.00092459016
000050 de bc 95 3b 45 19 54 bc 3c 63 e5 3b 22 47 30 3b
       0.004569634 -0.012945478 0.007000355 0.0026897867
000060 ac b7 65 3b 54 7f 67 bb c5 b1 08 ba 37 a7 91 3b
       0.0035052104 -0.0035323696 -0.0005214478 0.0044449824
000070 86 32 8e 39 05 a2 dc b9 de c4 c2 3b e6 ef f1 3b
       0.00027121993 -0.00042082384 0.0059438786 0.0073833345

static_variable_selection.single_variable_grns.encoder_length.gate_norm.add_norm.norm.weight f4 [16]
000000 86 5c 82 3f 1d 41 7b 3f 0a c8 7e 3f 6d 7d 80 3f
       1.0184486 0.9814623 0.99523985 1.0038277
000010 e4 1f 7c 3f 72 9e 82 3f 64 be 80 3f ac 9d 81 3f
       0.9848616 1.0204604 1.0058103 1.0126243
000020 f6 d4 7b 3f a4 b1 7a 3f 2a 1f 7f 3f fe f3 81 3f
       0.9837183 0.9792731 0.9965693 1.0152586
000030 6a be 7b 3f 34 8b 7c 3f af 2f 7e 3f 50 34 82 3f
       0.98337424 0.9864991 0.9929151 1.0172215

static_variable_selection.single_variable_grns.encoder_length.gate_norm.add_norm.norm.bias f4 [16]
000000 4c 08 99 bc 42 57 a6 3c 97 3a 84 bc cb bd a0 3b
       -0.018680714 0.02030528 -0.016141219 0.0049054376
000010 0f f3 7b bc 87 5b aa 3c dc ed 51 bc 7e bb 5d 3c
       -0.015377774 0.020795597 -0.012813058 0.013533471
000020 42 78 80 bc 1e 78 a2 bc 64 04 0d bc 30 29 82 bc
       -0.015682343 -0.019832667 -0.008607004 -0.01588878
000030 0a 70 88 3c 84 4f 3f 3c bb 71 31 3c 7e d3 84 bc
       0.016654987 0.011676673 0.010830338 -0.016214129

static_variable_selection.single_variable_grns.dataUsage_center.resample_norm.mask f4 [16]
000000 32 90 0e bb 2a 8f 52 bb 64 b7 8e 3b 14 07 7d bb
       -0.0021753428 -0.003212879 0.004355358 -0.0038608955
000010 96 73 f4 3b f7 69 49 bc 4a 34 7e 3b 54 e0 9f bb
       0.007460068 -0.01229333 0.003878849 -0.004879037
000020 37 df 38 3b d2 29 d3 3b 50 aa fe 3a 29 4c f4 3b
       0.0028209218 0.0064441944 0.0019429419 0.007455368
000030 ca ac 9d bb 04 9b ad b9 90 b6 4b ba 9e 9d 81 3b
       -0.004811858 -0.00033112627 -0.00077710394 0.003955557

static_variable_selection.single_variable_grns.dataUsage_center.resample_norm.norm.weight f4 [16]
000000 28 db 7d 3f 04 b4 81 3f b4 07 7f 3f 50 95 7f 3f
       0.9916253 1.0133061 0.9962113 0.9983721
000010 36 0e 81 3f 01 04 7d 3f f4 2a 80 3f 3b 1b 80 3f
       1.0082462 0.98834234 1.0013108 1.000831
000020 13 a9 7e 3f 2a 16 7f 3f 53 5d 80 3f ce 32 81 3f
       0.99476737 0.99643195 1.002848 1.0093629
000030 58 40 80 3f 8c aa 80 3f 53 64 80 3f 78 6a 80 3f
       1.0019636 1.0052047 1.0030617 1.0032492

static_variable_selection.single_variable_grns.dataUsage_center.resample_norm.norm.bias f4 [16]
000000 16 55 12 bc 39 e4 77 3c 7e b2 34 bc 1e 52 9b 3b
       -0.008931419 0.015130096 -0.011028884 0.0047400137
000010 34 87 16 bc 44 d3 5c 3c f4 60 d3 bb 1e 7a 19 3c
       -0.009187508 0.013478104 -0.0064507667 0.009367494
000020 47 d1 16 bc 5c 74 42 bc 56 c7 2e bb 66 c0 02 bc
       -0.009205169 -0.011868563 -0.0026669106 -0.007980442
000030 0b 39 26 3c 18 f6 a4 3b 39 0b 93 3b 4a cf 13 bc
       0.010145436 0.0050342195 0.004487422 -0.0090215895

static_variable_selection.single_variable_grns.dataUsage_center.fc1.weight f4 [8, 8]
000000 2e a8 49 3e 76 54 6a bf 5f 47 5b 3f e3 5f 6c 3e
       0.19693062 -0.9153513 0.8565578 0.23083453
000010 72 bf 8c 3e a6 fb 9e be 08 b3 45 bf 70 e3 ed bd
       0.2748981 -0.31051368 -0.77226305 -0.11615646
000020 9c 9d bb 3e 8a ea bb 3e f0 b2 bc 3d 24 aa a1 be
       0.36643684 0.36702377 0.09213817 -0.3157512
000030 a8 14 5b bf 66 d9 01 bf 46 14 a4 3d 6a 0f b3 3b
       -0.85578394 -0.5072235 0.08011679 0.005464484
000040 75 0a 83 3c 36 88 61 3e e3 5a 22 3f e0 c9 91 be
       0.015996197 0.22024617 0.6341993 -0.2847433
000050 ab d9 38 3e f0 6c 03 be 0c 17 30 3e f2 a0 a4 3e
       0.18051784 -0.12834525 0.17196292 0.32154042
000060 70 c0 18 3f 9a 09 60 3f 6a bf 9a 3e 3a 04 08 3f
       0.59668636 0.8751465 0.30224162 0.5313145
000070 22 b0 1f 3f 02 73 0b 3f ca 30 de be d0 27 e5 bd
       0.6237813 0.54472363 -0.43396598 -0.11189234
000080 26 e1 16 3f b2 ff 82 3e 76 06 0f 3e 0e 3e ba 3e
       0.589373 0.25585705 0.13967308 0.3637547
000090 7e 45 3b 3e 49 01 e8 3e fc 8f 83 3f bc 31 89 be
       0.18288228 0.4531348 1.0278316 -0.26795757
0000a0 64 83 f8 be e6 71 3a 3e 21 ed ba 3e 8a 05 73 be
       -0.48537743 0.18207511 0.3650904 -0.23732582
0000b0 66 f1 06 3f 11 97 3d bf 61 fd 73 be 79 69 b2 3e
       0.52712095 -0.74058634 -0.23827125 0.34846094
0000c0 96 5e 38 be 2b f9 45 bf 39 37 5f bf 28 1c bd be
       -0.18004832 -0.77333325 -0.8719364 -0.36935544
0000d0 84 49 63 bf a1 83 b2 3e bc e3 bf be 5d ee cb 3e
       -0.8878405 0.3486605 -0.37478435 0.39830294
0000e0 74 8b 42 3e a5 51 fb 3a 2d 88 28 3e aa a0 73 bf
       0.1899851 0.0019174112 0.16458197 -0.9516703
0000f0 5c 60 b0 bc 46 ce 96 be f0 44 8c 3d 45 bf 9f bd
       -0.021530323 -0.2945425 0.06849086 -0.07800154

static_variable_selection.single_variable_grns.dataUsage_center.fc1.bias f4 [8]
000000 16 24 1a 3b 4c 02 39 bc a4 2b 17 3a 6f 6a 9b 3b
       0.0023520044 -0.0112920515 0.0005766696 0.0047429125
000010 82 35 29 bc 7b c4 1a bb 40 8b 13 38 fe 56 b4 bb
       -0.010327699 -0.0023615647 3.5177218e-05 -0.0055035343
